src/throttle_model2.pth (torch_old, 1126 bytes, 3 tensors)

linear1.weight f4 [20, 2]
1.9227786 -0.775006 11.553262 -0.5955959 34.516506 -0.963977 9.223963 -0.051108845
-14.401762 0.84748334 0.79662484 -0.65243465 -0.36895078 -1.2210337 12.105813 -0.0238065
6.136525 0.72645843 -13.475679 -0.011251466 15.650455 -1.1090463 1.9304613 -0.7643218
-29.326288 0.96399033 11.822629 0.0036715674 -21.791616 0.24513072 -29.386797 1.1259607
14.925287 -0.38425523 21.361439 -0.24590783 25.702616 -0.26789162 -13.459513 -0.020429546
00000000: 9c1d f63f cb66 46bf 29da 3841 f978 18bf
00000010: e710 0a42 32c7 76bf 5a95 1341 8257 51bd
00000020: 9e6d 66c1 abf4 583f 9bef 4b3f f505 27bf
00000030: 1ee7 bcbe d54a 9cbf 69b1 4141 d905 c3bc
00000040: 6a5e c440 2ef9 393f 629c 57c1 1258 38bc
00000050: 4468 7a41 3bf5 8dbf 5b19 f73f 98aa 43bf
00000060: 3d9c eac1 12c8 763f 7d29 3d41 ae9e 703b
00000070: 3b55 aec1 8c03 7b3e 2918 ebc1 7b1f 903f
00000080: facd 6e41 1abd c4be 3ae4 aa41 43cf 7bbe
00000090: f59e cd41 1729 89be 2a5a 57c1 dd5b a7bc

linear1.bias f4 [20]
1.7531399 14.415661 10.88818 -3.1804843 -4.233371 0.0941022 6.4920845 -1.7563893
-2.9458637 4.1513023 18.694284 1.6813262 -19.4574 -3.689919 -0.6240472 -23.732628
-0.5519101 0.7073993 0.6611805 4.603316
00000000: e366 e03f 8ca6 6641 fc35 2e41 0e8d 4bc0
00000010: c677 87c0 a7b8 c03d 28bf cf40 5dd1 e0bf
00000020: 0889 3cc0 78d7 8440 e58d 9541 b235 d73f
00000030: c1a8 9bc1 a227 6cc0 8fc1 1fbf 6cdc bdc1
00000040: fb49 0dbf 1f18 353f 2043 293f 5d4e 9340

linear2.weight f4 [1, 20]
1.9890335 -13.795892 29.408533 4.8673716 -0.14305785 0.3560574 -9.536695 5.7600336
5.6316867 -5.6011167 22.53286 1.5655522 -1.5907164 6.10907 -2.1344929 -2.4423485
7.846254 13.415447 20.115395 -6.0911384
00000000: a698 fe3f f9bb 5cc1 ad44 eb41 82c1 9b40
00000010: c27d 12be 284d b63e 4d96 18c1 3252 b840
00000020: c736 b440 593c b3c0 4c43 b441 0464 c83f
00000030: 989c cbbf 807d c340 889b 08c0 704f 1cc0
00000040: 8314 fb40 aca5 5641 54ec a041 9bea c2c0
