src/misc/throttle_model1.pth (torch_old, 1126 bytes, 3 tensors)

linear1.weight f4 [20, 2]
00000000: 5ba4 20c2 cde9 d4bd 8d76 6342 823a 923f
00000010: d304 dfc1 68ea a53d df45 d8c1 3a77 00c0
00000020: f3f6 f441 37ad 85bc 0055 0ac2 38bc b63c
00000030: 0db6 8c41 1d6e f0bd 633e 28c2 d299 a13b
00000040: 348d 3340 c33a 8b3d 0b6c a7c1 a50c 2fc0
00000050: 22e4 08c2 9c19 b6bd 00b8 4ac2 ab8c 8ac0
00000060: 7218 19c2 9e2a 823d 2f50 dbc0 fee3 d73d
00000070: 2f4b 64c2 afaf f1bf 03e8 1e42 8979 5a3d
00000080: 637f f8c1 c26b 51c0 8f47 0042 da38 5343
00000090: 4d53 12c3 34d4 4b42 013c f2c0 8808 04be
-40.160503 -0.103961565 56.865772 1.1424105 -27.877356 0.0810135 -27.034117 -2.007277
30.62058 -0.016317947 -34.583008 0.022306547 17.588892 -0.117397524 -42.060925 0.004931667
2.8054934 0.06798317 -20.927755 -2.7351468 -34.222786 -0.08891603 -50.679688 -4.3296714
-38.273872 0.06355785 -6.853538 0.10541533 -57.07342 -1.8881739 39.726574 0.05333856
-31.0622 -3.272202 32.06988 211.22208 -146.3254 50.95723 -7.5698247 -0.1289388

linear1.bias f4 [20]
00000000: fbde 9e40 7362 3ac1 3d23 743f 9c34 f541
00000010: 3e7a e2c0 a8cf 7f3f 0026 2b41 2e7a 1641
00000020: 6478 8cc1 91b0 ca3f 3082 6340 34d1 dd40
00000030: dc56 bb40 f153 89c1 89e3 f740 512c 16c1
00000040: d5f6 0842 6799 ecc0 e0de 4cc3 61f1 193f
4.9647193 -11.649035 0.9536627 30.650688 -7.077422 0.99926233 10.696777 9.404829
-17.558784 1.5835134 3.554821 6.9317875 5.854353 -17.165987 7.7465253 -9.385819
34.241047 -7.393726 -204.8706 0.6013394

linear2.weight f4 [1, 20]
00000000: f6a5 c440 2e6e 823f 1ba5 cbc1 adce 4e40
00000010: 09d7 2d42 dd46 a141 74f6 8841 3bfb b6c1
00000020: 855a b4c2 fa38 5840 6e6e a540 ff3d 0541
00000030: 4b73 e6c1 02f8 d0c1 a674 1941 b95b e041
00000040: a7e7 3740 82f4 7640 4b5c 6440 7d66 0ec1
6.145259 1.0189874 -25.455618 3.2313645 43.459995 20.159601 17.120338 -22.872671
-90.176796 3.3784776 5.16973 8.327636 -28.806295 -26.121098 9.590979 28.044786
2.873514 3.8586736 3.568133 -8.900022
